…
AR.2            0.9187           -1.1187j            1.4476           -0.1406
AR.3            0.9187           +1.1187j            1.4476            0.1406
AR.4           -0.2059           -1.5189j            1.5328           -0.2714
AR.5           -0.2059           +1.5189j            1.5328            0.2714
-----------------------------------------------------------------------------


[T | 1h] - RNN model Univariate
- Train size: 6028 | Batch size: 32
- Training time (s): 225.6078
- Trainable params: 1153
- Best Val Loss (MSE): 0.002522
- Stopped epoch: 73
- Model's Summary:
RNN(
  (rnn): RNN(1, 32, batch_first=True)
  (fc): Linear(in_features=32, out_features=1, bias=True)
)

[T | 6h] - RNN model Univariate
- Train size: 968 | Batch size: 32
- Training time (s): 5.0174
- Trainable params: 1153
- Best Val Loss (MSE): 0.105414
- Stopped epoch: 18
- Model's Summary:
RNN(
  (rnn): RNN(1, 32, batch_first=True)
  (fc): Linear(in_features=32, out_features=1, bias=True)
)

[T | 24h] - RNN model Univariate
- Train size: 228 | Batch size: 32
- Training time (s): 0.5512
- Trainable params: 1153
- Best Val Loss (MSE): 0.378264
- Stopped epoch: 13
- Model's Summary:
RNN(
  (rnn): RNN(1, 32, batch_first=True)
  (fc): Linear(in_features=32, out_features=1, bias=True)
)

[T | 1h] - RNN_MV model Multivariate
- Train size: 6028 | Batch size: 32
- Training time (s): 238.569
- Trainable params: 1217
- Best Val Loss (MSE): 0.002189
- Stopped epoch: 75
- Model's Summary:
RNN(
  (rnn): RNN(3, 32, batch_first=True)
  (fc): Linear(in_features=32, out_features=1, bias=True)
)

[T | 6h] - RNN_MV model Multivariate
- Train size: 969 | Batch size: 32
- Training time (s): 29.1706
- Trainable params: 1217
- Best Val Loss (MSE): 0.077022
- Stopped epoch: 105
- Model's Summary:
RNN(
  (rnn): RNN(3, 32, batch_first=True)
  (fc): Linear(in_features=32, out_features=1, bias=True)
)

[T | 24h] - RNN_MV model Multivariate
- Train size: 229 | Batch size: 32
- Training time (s): 0.3411
- Trainable params: 1217
- Best Val Loss (MSE): 0.393910
- Stopped epoch: 11
- Model's Summary:
RNN(
  (rnn): RNN(3, 32, batch_first=True)
  (fc): Linear(in_features=32, out_features=1, bias=True)
)

[T | 1h] - ATT model Univariate
- Train size: 6028 | Batch size: 32
- Training time (s): 667.3014
- Trainable params: 21025
- Best Val Loss (MSE): 0.003410
- Stopped epoch: 109
- Model's Summary:
AttNN(
  (in_proj): Linear(in_features=1, out_features=32, bias=True)
  (layers): ModuleList(
    (0-1): 2 x ModuleDict(
      (attn): MultiheadAttention(
        (out_proj): NonDynamicallyQuantizableLinear(in_features=32, out_features=32, bias=True)
      )
      (norm1): LayerNorm((32,), eps=1e-05, elementwise_affine=True)
      (ffn): Sequential(
        (0): Linear(in_features=32, out_features=64, bias=True)
        (1): ReLU()
        (2): Linear(in_features=64, out_features=32, bias=True)
      )
      (norm2): LayerNorm((32,), eps=1e-05, elementwise_affine=True)
    )
  )
  (out): Linear(in_features=32, out_features=1, bias=True)
)

[T | 6h] - ATT model Univariate
- Train size: 968 | Batch size: 32
- Training time (s): 14.5952
- Trainable params: 18977
- Best Val Loss (MSE): 0.135898
- Stopped epoch: 24
- Model's Summary:
AttNN(
  (in_proj): Linear(in_features=1, out_features=32, bias=True)
  (layers): ModuleList(
    (0-1): 2 x ModuleDict(
      (attn): MultiheadAttention(
        (out_proj): NonDynamicallyQuantizableLinear(in_features=32, out_features=32, bias=True)
      )
      (norm1): LayerNorm((32,), eps=1e-05, elementwise_affine=True)
      (ffn): Sequential(
        (0): Linear(in_features=32, out_features=64, bias=True)
        (1): ReLU()
        (2): Linear(in_features=64, out_features=32, bias=True)
      )
      (norm2): LayerNorm((32,), eps=1e-05, elementwise_affine=True)
    )
  )
  (out): Linear(in_features=32, out_features=1, bias=True)
)

[T | 24h] - ATT model Univariate
- Train size: 228 | Batch size: 32
- Training time (s): 3.755
- Trainable params: 18081
- Best Val Loss (MSE): 0.376845
- Stopped epoch: 21
- Model's Summary:
AttNN(
  (in_proj): Linear(in_features=1, out_features=32, bias=True)
  (layers): ModuleList(
    (0-1): 2 x ModuleDict(
      (attn): MultiheadAttention(
        (out_proj): NonDynamicallyQuantizableLinear(in_features=32, out_features=32, bias=True)
      )
      (norm1): LayerNorm((32,), eps=1e-05, elementwise_affine=True)
      (ffn): Sequential(
        (0): Linear(in_features=32, out_features=64, bias=True)
        (1): ReLU()
        (2): Linear(in_features=64, out_features=32, bias=True)
      )
      (norm2): LayerNorm((32,), eps=1e-05, elementwise_affine=True)
    )
  )
  (out): Linear(in_features=32, out_features=1, bias=True)
)

[T | 1h] - ATT_MV model Multivariate
- Train size: 6028 | Batch size: 32
- Training time (s): 246.8591
- Trainable params: 21089
- Best Val Loss (MSE): 0.003638
- Stopped epoch: 43
- Model's Summary:
AttNN(
  (in_proj): Linear(in_features=3, out_features=32, bias=True)
  (layers): ModuleList(
    (0-1): 2 x ModuleDict(
      (attn): MultiheadAttention(
        (out_proj): NonDynamicallyQuantizableLinear(in_features=32, out_features=32, bias=True)
      )
      (norm1): LayerNorm((32,), eps=1e-05, elementwise_affine=True)
      (ffn): Sequential(
        (0): Linear(in_features=32, out_features=64, bias=True)
        (1): ReLU()
        (2): Linear(in_features=64, out_features=32, bias=True)
      )
      (norm2): LayerNorm((32,), eps=1e-05, elementwise_affine=True)
    )
  )
  (out): Linear(in_features=32, out_features=1, bias=True)
)

[T | 6h] - ATT_MV model Multivariate
- Train size: 969 | Batch size: 32
- Training time (s): 54.27
- Trainable params: 19041
- Best Val Loss (MSE): 0.089241
- Stopped epoch: 92
- Model's Summary:
AttNN(
  (in_proj): Linear(in_features=3, out_features=32, bias=True)
  (layers): ModuleList(
    (0-1): 2 x ModuleDict(
      (attn): MultiheadAttention(
        (out_proj): NonDynamicallyQuantizableLinear(in_features=32, out_features=32, bias=True)
      )
      (norm1): LayerNorm((32,), eps=1e-05, elementwise_affine=True)
      (ffn): Sequential(
        (0): Linear(in_features=32, out_features=64, bias=True)
        (1): ReLU()
        (2): Linear(in_features=64, out_features=32, bias=True)
      )
      (norm2): LayerNorm((32,), eps=1e-05, elementwise_affine=True)
    )
  )
  (out): Linear(in_features=32, out_features=1, bias=True)
)

[T | 24h] - ATT_MV model Multivariate
- Train size: 229 | Batch size: 32
- Training time (s): 2.5273
- Trainable params: 18145
- Best Val Loss (MSE): 0.329648
- Stopped epoch: 28
- Model's Summary:
AttNN(
  (in_proj): Linear(in_features=3, out_features=32, bias=True)
  (layers): ModuleList(
    (0-1): 2 x ModuleDict(
      (attn): MultiheadAttention(
        (out_proj): NonDynamicallyQuantizableLinear(in_features=32, out_features=32, bias=True)
      )
      (norm1): LayerNorm((32,), eps=1e-05, elementwise_affine=True)
      (ffn): Sequential(
        (0): Linear(in_features=32, out_features=64, bias=True)
        (1): ReLU()
        (2): Linear(in_features=64, out_features=32, bias=True)
      )
      (norm2): LayerNorm((32,), eps=1e-05, elementwise_affine=True)
    )
  )
  (out): Linear(in_features=32, out_features=1, bias=True)
)

[T | 1h] - TRANS model Univariate
- Train size: 6028 | Batch size: 32
- Training time (s): 933.6536
- Trainable params: 38065
- Best Val Loss (MSE): 0.003020
- Stopped epoch: 86
- Model's Summary:
TransformerEncoder(
  (input_proj): Linear(in_features=1, out_features=48, bias=True)
  (encoder): TransformerEncoder(
    (layers): ModuleList(
      (0-1): 2 x TransformerEncoderLayer(
        (self_attn): MultiheadAttention(
          (out_proj): NonDynamicallyQuantizableLinear(in_features=48, out_features=48, bias=True)
        )
        (linear1): Linear(in_features=48, out_features=96, bias=True)
        (dropout): Dropout(p=0.1, inplace=False)
        (linear2): Linear(in_features=96, out_features=48, bias=True)
        (norm1): LayerNorm((48,), eps=1e-05, elementwise_affine=True)
        (norm2): LayerNorm((48,), eps=1e-05, elementwise_affine=True)
        (dropout1): Dropout(p=0.1, inplace=False)
        (dropout2): Dropout(p=0.1, inplace=False)
      )
    )
  )
  (output_layer): Linear(in_features=48, out_features=1, bias=True)
)

[T | 6h] - TRANS model Univariate
- Train size: 968 | Batch size: 32
- Training time (s): 19.5148
- Trainable params: 38065
- Best Val Loss (MSE): 0.141621
- Stopped epoch: 30
- Model's Summary:
TransformerEncoder(
  (input_proj): Linear(in_features=1, out_features=48, bias=True)
  (encoder): TransformerEncoder(
    (layers): ModuleList(
      (0-1): 2 x TransformerEncoderLayer(
        (self_attn): MultiheadAttention(
          (out_proj): NonDynamicallyQuantizableLinear(in_features=48, out_features=48, bias=True)
        )
        (linear1): Linear(in_features=48, out_features=96, bias=True)
        (dropout): Dropout(p=0.1, inplace=False)
        (linear2): Linear(in_features=96, out_features=48, bias=True)
        (norm1): LayerNorm((48,), eps=1e-05, elementwise_affine=True)
        (norm2): LayerNorm((48,), eps=1e-05, elementwise_affine=True)
        (dropout1): Dropout(p=0.1, inplace=False)
        (dropout2): Dropout(p=0.1, inplace=False)
      )
    )
  )
  (output_layer): Linear(in_features=48, out_features=1, bias=True)
)

[T | 24h] - TRANS model Univariate
- Train size: 228 | Batch size: 32
- Training time (s): 1.4925
- Trainable params: 38065
- Best Val Loss (MSE): 0.358113
- Stopped epoch: 13
- Model's Summary:
TransformerEncoder(
  (input_proj): Linear(in_features=1, out_features=48, bias=True)
  (encoder): TransformerEncoder(
    (layers): ModuleList(
      (0-1): 2 x TransformerEncoderLayer(
        (self_attn): MultiheadAttention(
          (out_proj): NonDynamicallyQuantizableLinear(in_features=48, out_features=48, bias=True)
        )
        (linear1): Linear(in_features=48, out_features=96, bias=True)
        (dropout): Dropout(p=0.1, inplace=False)
        (linear2): Linear(in_features=96, out_features=48, bias=True)
        (norm1): LayerNorm((48,), eps=1e-05, elementwise_affine=True)
        (norm2): LayerNorm((48,), eps=1e-05, elementwise_affine=True)
        (dropout1): Dropout(p=0.1, inplace=False)
        (dropout2): Dropout(p=0.1, inplace=False)
      )
    )
  )
  (output_layer): Linear(in_features=48, out_features=1, bias=True)
)

[T | 1h] - TRANS_MV model Multivariate
- Train size: 6028 | Batch size: 32
- Training time (s): 585.6651
- Trainable params: 38161
- Best Val Loss (MSE): 0.003192
- Stopped epoch: 56
- Model's Summary:
TransformerEncoder(
  (input_proj): Linear(in_features=3, out_features=48, bias=True)
  (encoder): TransformerEncoder(
    (layers): ModuleList(
      (0-1): 2 x TransformerEncoderLayer(
        (self_attn): MultiheadAttention(
          (out_proj): NonDynamicallyQuantizableLinear(in_features=48, out_features=48, bias=True)
        )
        (linear1): Linear(in_features=48, out_features=96, bias=True)
        (dropout): Dropout(p=0.1, inplace=False)
        (linear2): Linear(in_features=96, out_features=48, bias=True)
        (norm1): LayerNorm((48,), eps=1e-05, elementwise_affine=True)
        (norm2): LayerNorm((48,), eps=1e-05, elementwise_affine=True)
        (dropout1): Dropout(p=0.1, inplace=False)
        (dropout2): Dropout(p=0.1, inplace=False)
      )
    )
  )
  (output_layer): Linear(in_features=48, out_features=1, bias=True)
)

[T | 6h] - TRANS_MV model Multivariate
- Train size: 969 | Batch size: 32
- Training time (s): 42.2326
- Trainable params: 38161
- Best Val Loss (MSE): 0.092438
- Stopped epoch: 65
- Model's Summary:
TransformerEncoder(
  (input_proj): Linear(in_features=3, out_features=48, bias=True)
  (encoder): TransformerEncoder(
    (layers): ModuleList(
      (0-1): 2 x TransformerEncoderLayer(
        (self_attn): MultiheadAttention(
          (out_proj): NonDynamicallyQuantizableLinear(in_features=48, out_features=48, bias=True)
        )
        (linear1): Linear(in_features=48, out_features=96, bias=True)
        (dropout): Dropout(p=0.1, inplace=False)
        (linear2): Linear(in_features=96, out_features=48, bias=True)
        (norm1): LayerNorm((48,), eps=1e-05, elementwise_affine=True)
        (norm2): LayerNorm((48,), eps=1e-05, elementwise_affine=True)
        (dropout1): Dropout(p=0.1, inplace=False)
        (dropout2): Dropout(p=0.1, inplace=False)
      )
    )
  )
  (output_layer): Linear(in_features=48, out_features=1, bias=True)
)

[T | 24h] - TRANS_MV model Multivariate
- Train size: 229 | Batch size: 32
- Training time (s): 2.4473
- Trainable params: 38161
- Best Val Loss (MSE): 0.354126
- Stopped epoch: 20
- Model's Summary:
TransformerEncoder(
  (input_proj): Linear(in_features=3, out_features=48, bias=True)
  (encoder): TransformerEncoder(
    (layers): ModuleList(
      (0-1): 2 x TransformerEncoderLayer(
        (self_attn): MultiheadAttention(
          (out_proj): NonDynamicallyQuantizableLinear(in_features=48, out_features=48, bias=True)
        )
        (linear1): Linear(in_features=48, out_features=96, bias=True)
        (dropout): Dropout(p=0.1, inplace=False)
        (linear2): Linear(in_features=96, out_features=48, bias=True)
        (norm1): LayerNorm((48,), eps=1e-05, elementwise_affine=True)
        (norm2): LayerNorm((48,), eps=1e-05, elementwise_affine=True)
        (dropout1): Dropout(p=0.1, inplace=False)
        (dropout2): Dropout(p=0.1, inplace=False)
      )
    )
  )
  (output_layer): Linear(in_features=48, out_features=1, bias=True)
)

