…
AR.2            0.9187           -1.1187j            1.4476           -0.1406
AR.3            0.9187           +1.1187j            1.4476            0.1406
AR.4           -0.2059           -1.5189j            1.5328           -0.2714
AR.5           -0.2059           +1.5189j            1.5328            0.2714
-----------------------------------------------------------------------------


[T | 1h] - RNN model Univariate
- Train size: 6076 | Batch size: 32
- Training time (s): 197.7429
- Trainable params: 1153
- Best Val Loss (MSE): 0.002566
- Stopped epoch: 103
- Model's Summary:
RNN(
  (rnn): RNN(1, 32, batch_first=True)
  (fc): Linear(in_features=32, out_features=1, bias=True)
)

[T | 6h] - RNN model Univariate
- Train size: 996 | Batch size: 32
- Training time (s): 35.0826
- Trainable params: 1153
- Best Val Loss (MSE): 0.085334
- Stopped epoch: 191
- Model's Summary:
RNN(
  (rnn): RNN(1, 32, batch_first=True)
  (fc): Linear(in_features=32, out_features=1, bias=True)
)

[T | 24h] - RNN model Univariate
- Train size: 235 | Batch size: 32
- Training time (s): 0.4647
- Trainable params: 1153
- Best Val Loss (MSE): 0.188644
- Stopped epoch: 12
- Model's Summary:
RNN(
  (rnn): RNN(1, 32, batch_first=True)
  (fc): Linear(in_features=32, out_features=1, bias=True)
)

[T | 1h] - RNN_MV model Multivariate
- Train size: 6076 | Batch size: 32
- Training time (s): 306.0387
- Trainable params: 1217
- Best Val Loss (MSE): 0.002291
- Stopped epoch: 123
- Model's Summary:
RNN(
  (rnn): RNN(3, 32, batch_first=True)
  (fc): Linear(in_features=32, out_features=1, bias=True)
)

[T | 6h] - RNN_MV model Multivariate
- Train size: 997 | Batch size: 32
- Training time (s): 16.9577
- Trainable params: 1217
- Best Val Loss (MSE): 0.067128
- Stopped epoch: 135
- Model's Summary:
RNN(
  (rnn): RNN(3, 32, batch_first=True)
  (fc): Linear(in_features=32, out_features=1, bias=True)
)

[T | 24h] - RNN_MV model Multivariate
- Train size: 236 | Batch size: 32
- Training time (s): 0.2918
- Trainable params: 1217
- Best Val Loss (MSE): 0.421355
- Stopped epoch: 11
- Model's Summary:
RNN(
  (rnn): RNN(3, 32, batch_first=True)
  (fc): Linear(in_features=32, out_features=1, bias=True)
)

[T | 1h] - ATT model Univariate
- Train size: 6076 | Batch size: 32
- Training time (s): 281.0838
- Trainable params: 10945
- Best Val Loss (MSE): 0.002934
- Stopped epoch: 111
- Model's Summary:
AttNN(
  (in_proj): Linear(in_features=1, out_features=32, bias=True)
  (layers): ModuleList(
    (0): ModuleDict(
      (attn): MultiheadAttention(
        (out_proj): NonDynamicallyQuantizableLinear(in_features=32, out_features=32, bias=True)
      )
      (norm1): LayerNorm((32,), eps=1e-05, elementwise_affine=True)
      (ffn): Sequential(
        (0): Linear(in_features=32, out_features=64, bias=True)
        (1): ReLU()
        (2): Linear(in_features=64, out_features=32, bias=True)
      )
      (norm2): LayerNorm((32,), eps=1e-05, elementwise_affine=True)
    )
  )
  (out): Linear(in_features=32, out_features=1, bias=True)
)

[T | 6h] - ATT model Univariate
- Train size: 996 | Batch size: 32
- Training time (s): 10.6655
- Trainable params: 9537
- Best Val Loss (MSE): 0.110156
- Stopped epoch: 38
- Model's Summary:
AttNN(
  (in_proj): Linear(in_features=1, out_features=32, bias=True)
  (layers): ModuleList(
    (0): ModuleDict(
      (attn): MultiheadAttention(
        (out_proj): NonDynamicallyQuantizableLinear(in_features=32, out_features=32, bias=True)
      )
      (norm1): LayerNorm((32,), eps=1e-05, elementwise_affine=True)
      (ffn): Sequential(
        (0): Linear(in_features=32, out_features=64, bias=True)
        (1): ReLU()
        (2): Linear(in_features=64, out_features=32, bias=True)
      )
      (norm2): LayerNorm((32,), eps=1e-05, elementwise_affine=True)
    )
  )
  (out): Linear(in_features=32, out_features=1, bias=True)
)

[T | 24h] - ATT model Univariate
- Train size: 235 | Batch size: 32
- Training time (s): 0.6332
- Trainable params: 9313
- Best Val Loss (MSE): 0.190522
- Stopped epoch: 12
- Model's Summary:
AttNN(
  (in_proj): Linear(in_features=1, out_features=32, bias=True)
  (layers): ModuleList(
    (0): ModuleDict(
      (attn): MultiheadAttention(
        (out_proj): NonDynamicallyQuantizableLinear(in_features=32, out_features=32, bias=True)
      )
      (norm1): LayerNorm((32,), eps=1e-05, elementwise_affine=True)
      (ffn): Sequential(
        (0): Linear(in_features=32, out_features=64, bias=True)
        (1): ReLU()
        (2): Linear(in_features=64, out_features=32, bias=True)
      )
      (norm2): LayerNorm((32,), eps=1e-05, elementwise_affine=True)
    )
  )
  (out): Linear(in_features=32, out_features=1, bias=True)
)

[T | 1h] - ATT_MV model Multivariate
- Train size: 6076 | Batch size: 32
- Training time (s): 142.6808
- Trainable params: 11009
- Best Val Loss (MSE): 0.002948
- Stopped epoch: 66
- Model's Summary:
AttNN(
  (in_proj): Linear(in_features=3, out_features=32, bias=True)
  (layers): ModuleList(
    (0): ModuleDict(
      (attn): MultiheadAttention(
        (out_proj): NonDynamicallyQuantizableLinear(in_features=32, out_features=32, bias=True)
      )
      (norm1): LayerNorm((32,), eps=1e-05, elementwise_affine=True)
      (ffn): Sequential(
        (0): Linear(in_features=32, out_features=64, bias=True)
        (1): ReLU()
        (2): Linear(in_features=64, out_features=32, bias=True)
      )
      (norm2): LayerNorm((32,), eps=1e-05, elementwise_affine=True)
    )
  )
  (out): Linear(in_features=32, out_features=1, bias=True)
)

[T | 6h] - ATT_MV model Multivariate
- Train size: 997 | Batch size: 32
- Training time (s): 16.5674
- Trainable params: 9601
- Best Val Loss (MSE): 0.077664
- Stopped epoch: 61
- Model's Summary:
AttNN(
  (in_proj): Linear(in_features=3, out_features=32, bias=True)
  (layers): ModuleList(
    (0): ModuleDict(
      (attn): MultiheadAttention(
        (out_proj): NonDynamicallyQuantizableLinear(in_features=32, out_features=32, bias=True)
      )
      (norm1): LayerNorm((32,), eps=1e-05, elementwise_affine=True)
      (ffn): Sequential(
        (0): Linear(in_features=32, out_features=64, bias=True)
        (1): ReLU()
        (2): Linear(in_features=64, out_features=32, bias=True)
      )
      (norm2): LayerNorm((32,), eps=1e-05, elementwise_affine=True)
    )
  )
  (out): Linear(in_features=32, out_features=1, bias=True)
)

[T | 24h] - ATT_MV model Multivariate
- Train size: 236 | Batch size: 32
- Training time (s): 1.3431
- Trainable params: 9377
- Best Val Loss (MSE): 0.340290
- Stopped epoch: 22
- Model's Summary:
AttNN(
  (in_proj): Linear(in_features=3, out_features=32, bias=True)
  (layers): ModuleList(
    (0): ModuleDict(
      (attn): MultiheadAttention(
        (out_proj): NonDynamicallyQuantizableLinear(in_features=32, out_features=32, bias=True)
      )
      (norm1): LayerNorm((32,), eps=1e-05, elementwise_affine=True)
      (ffn): Sequential(
        (0): Linear(in_features=32, out_features=64, bias=True)
        (1): ReLU()
        (2): Linear(in_features=64, out_features=32, bias=True)
      )
      (norm2): LayerNorm((32,), eps=1e-05, elementwise_affine=True)
    )
  )
  (out): Linear(in_features=32, out_features=1, bias=True)
)

[T | 1h] - TRANS model Univariate
- Train size: 6076 | Batch size: 32
- Training time (s): 250.8536
- Trainable params: 8641
- Best Val Loss (MSE): 0.003219
- Stopped epoch: 91
- Model's Summary:
TransformerEncoder(
  (input_proj): Linear(in_features=1, out_features=32, bias=True)
  (encoder): TransformerEncoder(
    (layers): ModuleList(
      (0): TransformerEncoderLayer(
        (self_attn): MultiheadAttention(
          (out_proj): NonDynamicallyQuantizableLinear(in_features=32, out_features=32, bias=True)
        )
        (linear1): Linear(in_features=32, out_features=64, bias=True)
        (dropout): Dropout(p=0.1, inplace=False)
        (linear2): Linear(in_features=64, out_features=32, bias=True)
        (norm1): LayerNorm((32,), eps=1e-05, elementwise_affine=True)
        (norm2): LayerNorm((32,), eps=1e-05, elementwise_affine=True)
        (dropout1): Dropout(p=0.1, inplace=False)
        (dropout2): Dropout(p=0.1, inplace=False)
      )
    )
  )
  (output_layer): Linear(in_features=32, out_features=1, bias=True)
)

[T | 6h] - TRANS model Univariate
- Train size: 996 | Batch size: 32
- Training time (s): 21.7515
- Trainable params: 8641
- Best Val Loss (MSE): 0.116460
- Stopped epoch: 62
- Model's Summary:
TransformerEncoder(
  (input_proj): Linear(in_features=1, out_features=32, bias=True)
  (encoder): TransformerEncoder(
    (layers): ModuleList(
      (0): TransformerEncoderLayer(
        (self_attn): MultiheadAttention(
          (out_proj): NonDynamicallyQuantizableLinear(in_features=32, out_features=32, bias=True)
        )
        (linear1): Linear(in_features=32, out_features=64, bias=True)
        (dropout): Dropout(p=0.1, inplace=False)
        (linear2): Linear(in_features=64, out_features=32, bias=True)
        (norm1): LayerNorm((32,), eps=1e-05, elementwise_affine=True)
        (norm2): LayerNorm((32,), eps=1e-05, elementwise_affine=True)
        (dropout1): Dropout(p=0.1, inplace=False)
        (dropout2): Dropout(p=0.1, inplace=False)
      )
    )
  )
  (output_layer): Linear(in_features=32, out_features=1, bias=True)
)

[T | 24h] - TRANS model Univariate
- Train size: 235 | Batch size: 32
- Training time (s): 1.1343
- Trainable params: 8641
- Best Val Loss (MSE): 0.186974
- Stopped epoch: 14
- Model's Summary:
TransformerEncoder(
  (input_proj): Linear(in_features=1, out_features=32, bias=True)
  (encoder): TransformerEncoder(
    (layers): ModuleList(
      (0): TransformerEncoderLayer(
        (self_attn): MultiheadAttention(
          (out_proj): NonDynamicallyQuantizableLinear(in_features=32, out_features=32, bias=True)
        )
        (linear1): Linear(in_features=32, out_features=64, bias=True)
        (dropout): Dropout(p=0.1, inplace=False)
        (linear2): Linear(in_features=64, out_features=32, bias=True)
        (norm1): LayerNorm((32,), eps=1e-05, elementwise_affine=True)
        (norm2): LayerNorm((32,), eps=1e-05, elementwise_affine=True)
        (dropout1): Dropout(p=0.1, inplace=False)
        (dropout2): Dropout(p=0.1, inplace=False)
      )
    )
  )
  (output_layer): Linear(in_features=32, out_features=1, bias=True)
)

[T | 1h] - TRANS_MV model Multivariate
- Train size: 6076 | Batch size: 32
- Training time (s): 202.7085
- Trainable params: 8705
- Best Val Loss (MSE): 0.002936
- Stopped epoch: 71
- Model's Summary:
TransformerEncoder(
  (input_proj): Linear(in_features=3, out_features=32, bias=True)
  (encoder): TransformerEncoder(
    (layers): ModuleList(
      (0): TransformerEncoderLayer(
        (self_attn): MultiheadAttention(
          (out_proj): NonDynamicallyQuantizableLinear(in_features=32, out_features=32, bias=True)
        )
        (linear1): Linear(in_features=32, out_features=64, bias=True)
        (dropout): Dropout(p=0.1, inplace=False)
        (linear2): Linear(in_features=64, out_features=32, bias=True)
        (norm1): LayerNorm((32,), eps=1e-05, elementwise_affine=True)
        (norm2): LayerNorm((32,), eps=1e-05, elementwise_affine=True)
        (dropout1): Dropout(p=0.1, inplace=False)
        (dropout2): Dropout(p=0.1, inplace=False)
      )
    )
  )
  (output_layer): Linear(in_features=32, out_features=1, bias=True)
)

[T | 6h] - TRANS_MV model Multivariate
- Train size: 997 | Batch size: 32
- Training time (s): 29.6444
- Trainable params: 8705
- Best Val Loss (MSE): 0.097098
- Stopped epoch: 82
- Model's Summary:
TransformerEncoder(
  (input_proj): Linear(in_features=3, out_features=32, bias=True)
  (encoder): TransformerEncoder(
    (layers): ModuleList(
      (0): TransformerEncoderLayer(
        (self_attn): MultiheadAttention(
          (out_proj): NonDynamicallyQuantizableLinear(in_features=32, out_features=32, bias=True)
        )
        (linear1): Linear(in_features=32, out_features=64, bias=True)
        (dropout): Dropout(p=0.1, inplace=False)
        (linear2): Linear(in_features=64, out_features=32, bias=True)
        (norm1): LayerNorm((32,), eps=1e-05, elementwise_affine=True)
        (norm2): LayerNorm((32,), eps=1e-05, elementwise_affine=True)
        (dropout1): Dropout(p=0.1, inplace=False)
        (dropout2): Dropout(p=0.1, inplace=False)
      )
    )
  )
  (output_layer): Linear(in_features=32, out_features=1, bias=True)
)

[T | 24h] - TRANS_MV model Multivariate
- Train size: 236 | Batch size: 32
- Training time (s): 0.8191
- Trainable params: 8705
- Best Val Loss (MSE): 0.384350
- Stopped epoch: 12
- Model's Summary:
TransformerEncoder(
  (input_proj): Linear(in_features=3, out_features=32, bias=True)
  (encoder): TransformerEncoder(
    (layers): ModuleList(
      (0): TransformerEncoderLayer(
        (self_attn): MultiheadAttention(
          (out_proj): NonDynamicallyQuantizableLinear(in_features=32, out_features=32, bias=True)
        )
        (linear1): Linear(in_features=32, out_features=64, bias=True)
        (dropout): Dropout(p=0.1, inplace=False)
        (linear2): Linear(in_features=64, out_features=32, bias=True)
        (norm1): LayerNorm((32,), eps=1e-05, elementwise_affine=True)
        (norm2): LayerNorm((32,), eps=1e-05, elementwise_affine=True)
        (dropout1): Dropout(p=0.1, inplace=False)
        (dropout2): Dropout(p=0.1, inplace=False)
      )
    )
  )
  (output_layer): Linear(in_features=32, out_features=1, bias=True)
)

